checkpoint.pt (torch, 1127 bytes, 1 tensors)

weight f4 [1, 20]
0	0x3e576ebc	0.21038336
1	0xbd0a5e24	-0.033781186
2	0x3c8fba90	0.017545015
3	0x3de05334	0.1095337
4	0xbe4a7950	-0.1977284
5	0x3e1886a8	0.14895117
6	0xbe57bb76	-0.21067604
7	0x3c4fbb80	0.012678981
8	0x3e4c3e2c	0.19945592
9	0xbde83694	-0.11338535
10	0xbe0e28c6	-0.13882741
11	0x3e3f3762	0.1867347
12	0xbe471c93	-0.19444494
13	0x3e497d66	0.19676742
14	0x3e1e94fa	0.15486518
15	0x3c8c6910	0.017139941
16	0x3d91a4f0	0.071115375
17	0xbe14c298	-0.14527357
18	0xbe0e08c4	-0.13870531
19	0xbdef3ede	-0.11681913
